resources/saved_models/mnist/mnist_guidance_classifier.pth (torch, 203708 bytes, 6 tensors)

conv1.weight f4 [32, 1, 3, 3]
0	0x3ebd5533	0.36979064
1	0x3cf1ee29	0.029532509
2	0xbe5fd609	-0.21858992
3	0x3eae1f55	0.3400828
4	0x3ec003a6	0.37502784
5	0x3d965c87	0.07341867
6	0xbcf20720	-0.029544413
7	0x3ede6985	0.4343988
8	0x3eb6d7da	0.35711557
9	0x3db7afaa	0.08969052
10	0xbe6e7549	-0.23286928
11	0xbdb02ef5	-0.08602706
12	0x3ea4d4f5	0.32193723
13	0x3e99e45e	0.30057043
14	0x3e93b141	0.28846171
15	0xbef28f0d	-0.47374764
16	0x3d99b45f	0.07505106
17	0xbe89a042	-0.2688008
18	0xbe4e7f9b	-0.20165865
19	0xbea5963e	-0.32341188
20	0xbeaf5592	-0.34244972
21	0x3dae6777	0.08515828
22	0x3d9924e5	0.0747774
23	0xbd2f0965	-0.04273357
24	0x3dc67ab7	0.09691375
25	0xbe8f9f17	-0.28051063
26	0x3d7f44f8	0.062321633
27	0x3e1d6633	0.15371017
28	0x3e494087	0.19653521
29	0xbe018389	-0.12647833
30	0x3e6fc365	0.23414381
31	0xbacb8ce2	-0.0015529657
32	0x3edab28f	0.42714354
33	0xbe257c2f	-0.16160654
34	0xbe00bfad	-0.12573119
35	0x3ecbd124	0.39808
36	0x3e38293f	0.17984484
37	0xbddfab4c	-0.10921344
38	0xbdd02cf7	-0.10164826
39	0xbca908df	-0.020634113
40	0xbec66029	-0.3874524
41	0xbe8b5576	-0.2721364
42	0xbe75644f	-0.23964046
43	0xbea5649e	-0.32303327
44	0xbe1739d1	-0.14768149
45	0x3de9a11a	0.11407681
46	0x3e2ed9a6	0.17075214
47	0x3e6cb60e	0.23116323
48	0x3e415a5b	0.18882124
49	0x3e01033b	0.12598889
50	0x3dd1c088	0.102418005
51	0xbe322f34	-0.17400819
52	0xbeb786a4	-0.3584491
53	0xbe5ca970	-0.2154901
54	0x3e33d0d6	0.17560133
55	0xbe5ff411	-0.21870448
56	0xbd524fef	-0.051345762
57	0xbe7d686f	-0.2474687
58	0xbe848cac	-0.25888574
59	0x3d8adc34	0.06780282
60	0x3e7730b4	0.24139673
61	0x3e56ef46	0.20989713
62	0x3e3c7cdd	0.18407007
63	0x3e44c67a	0.19216338
64	0x3e5d057c	0.21584123
65	0xbe9e8061	-0.3095732
66	0xbe868e6e	-0.2628054
67	0x3d6792de	0.056536548
68	0x3d50fd40	0.051022768
69	0x3eb594df	0.35465142
70	0xbe4f3a24	-0.20237023
71	0x3de0ef3a	0.10983129
72	0x3ea715ff	0.3263397
73	0x3e4c8df3	0.19976024
74	0xbd30a692	-0.043127604
75	0xbe253562	-0.16133645
76	0xbebee24e	-0.37282032
77	0xbec05f87	-0.37572882
78	0xbe7121a2	-0.23547986
79	0xbebefa18	-0.3730018
80	0xbe973c69	-0.29538277
81	0xbeb0a594	-0.34501326
82	0xbea89a7c	-0.32930362
83	0x3e06de50	0.13170743
84	0xbe85562f	-0.26042315
85	0x3e82e204	0.2556306
86	0x3e99d966	0.30048674
87	0xbcb4c371	-0.02206585
88	0x3d7829ec	0.060586855
89	0x3dcd0b58	0.10011929
90	0x3eae6b24	0.34066117
91	0xba9aceda	-0.0011810914
92	0x3ec953c1	0.39321712
93	0x3e0a4257	0.13501869
94	0xbe9277e0	-0.28607082
95	0x3ea834de	0.32852834
96	0xbe70ecd8	-0.23527849
97	0xbe786942	-0.24258903
98	0xbe28c37c	-0.16480821
99	0xbc972d5c	-0.018454246
100	0xbec90e82	-0.3926888
101	0x3e0636f9	0.13106908
102	0x3eb0c7be	0.3452739
103	0x3e84128e	0.25795406
104	0x3ddbf909	0.10740859
105	0x3ed887a4	0.42290986
106	0x3d47442d	0.048649002
107	0xbc9dca4c	-0.019261502
108	0xbe90cafa	-0.2827986
109	0x3d032f77	0.032027688
110	0xbc8b3cc4	-0.016996749
111	0xbe24d7a0	-0.1609788
112	0xbd4e47ad	-0.050361324
113	0xbe868e1f	-0.26280305
114	0xbec6bf28	-0.38817716
115	0xbd726b43	-0.059184324
116	0x3e6e0e61	0.23247673
117	0x3eafbaba	0.3432215
118	0x3ed45f4e	0.41478962
119	0xbde8802c	-0.11352572
120	0xbec1846d	-0.37796345
121	0xbe9e6dc6	-0.30943125
122	0xbe2dacbb	-0.16960423
123	0x3d189011	0.037246767
124	0xbdd13c98	-0.102166355
125	0x3e927fdd	0.28613177
126	0xbde71fff	-0.112854
127	0xbe7201cd	-0.236335
128	0x3d2e30b6	0.042526923
129	0xbd59c86a	-0.053169645
130	0x3d64fb2d	0.055903602
131	0xbe886c8a	-0.2664531
132	0x3d7de300	0.061984062
133	0xbe52f50c	-0.2060129
134	0xbe840dd0	-0.25791788
135	0x3e71b40e	0.23603842
136	0x3e0eb4cb	0.13936155
137	0xbe981982	-0.2970696
138	0x3ea829c8	0.32844377
139	0x3e95b822	0.29242045
140	0xbdbcafb7	-0.092132024
141	0x3e885dbd	0.26634017
142	0xbed214c1	-0.4103146
143	0xbd1f49d1	-0.038888756
144	0xbe8800ae	-0.2656302
145	0x3e2d3ef2	0.16918543
146	0x3e8939bc	0.2680186
147	0xbe83ef51	-0.2576852
148	0xbeaf5784	-0.34246457
149	0x3e00b656	0.12569556
150	0xbdcbbf06	-0.09948544
151	0xbe70321a	-0.23456612
152	0xbe9e8a3e	-0.30964845
153	0x3dcdc998	0.100482166
154	0x3e46af51	0.19402815
155	0x3e99fa18	0.3007362
156	0xbe4c6f65	-0.19964369
157	0xbd6fa761	-0.058509234
158	0xbe51418f	-0.20435165
159	0xbdea246b	-0.114327274
160	0xbec3a218	-0.38209605
161	0xbe9e7412	-0.3094793
162	0xbcc0a8d0	-0.023517996
163	0xbead734b	-0.33877024
164	0xbe3ae93f	-0.18253039
165	0xbe77b405	-0.24189766
166	0xbe7276f4	-0.2367819
167	0x3d2c5cdc	0.042080745
168	0xbeaf4b65	-0.3423721
169	0xbe1b507d	-0.15167423
170	0x3e9fb89f	0.31195542
171	0x3ecebbd3	0.40377674
172	0x3cdbaf94	0.02681712
173	0xbe9d99bd	-0.30781356
174	0x3e232dd3	0.1593545
175	0xbe750865	-0.23928984
176	0xbdeef2f3	-0.11667433
177	0x3e65c872	0.22439745
178	0x3e83f1a8	0.25770307
179	0xbe9a8bb6	-0.30184716
180	0xbe4bd69c	-0.19906086
181	0xbe36909c	-0.17828602
182	0x3d8cb131	0.06869734
183	0xbe80050a	-0.25003844
184	0xbe932d62	-0.28745562
185	0xbe484763	-0.19558482
186	0x3e87cef9	0.26525095
187	0xbdde2fee	-0.108489856
188	0xbe68aeeb	-0.22722976
189	0x3e1bb7ae	0.15206787
190	0xbdc8abe8	-0.097984135
191	0x3e5d0597	0.21584164
192	0xbe45a91e	-0.19302794
193	0x3ddebe30	0.10876119
194	0x3e2a0e07	0.16606914
195	0xbec5e8a4	-0.38654053
196	0x3e205b1f	0.1565976
197	0x3ea27732	0.31731564
198	0xbe822574	-0.254192
199	0x3dfca655	0.12336413
200	0x3dff2f82	0.12460233
201	0x3d9c344c	0.07627162
202	0x3e8d1361	0.27553847
203	0xbe0fb017	-0.14032017
204	0x3ec1d0ec	0.37854707
205	0x3e51a46e	0.20472881
206	0xbeb02258	-0.34401202
207	0xbda965b2	-0.0827135
208	0xbd099d4c	-0.033597276
209	0xbeb59912	-0.35468346
210	0x3ecf1d61	0.40452102
211	0xbd8a7bae	-0.06761871
212	0x3eace4be	0.33768266
213	0x3e7af8a9	0.24508919
214	0xbe0c9747	-0.13729583
215	0x3eb7ecc1	0.35922816
216	0x3e6c814c	0.23096198
217	0x3e8ed5d6	0.2789752
218	0x3ea35972	0.3190418
219	0x3e25ac38	0.16178977
220	0x3ea7df89	0.3278773
221	0x3cb78c1a	0.022405673
222	0x3dc1a542	0.094553486
223	0xbee489ba	-0.44636327
224	0xbe65d95f	-0.22446202
225	0x3d09168d	0.03346877
226	0xbeccbbda	-0.3998707
227	0xbe474c68	-0.1946274
228	0xbe85f35a	-0.26162225
229	0x3e0ceb22	0.13761571
230	0xbe73934c	-0.23786658
231	0x3e5fd785	0.21859558
232	0x3ec428ed	0.38312474
233	0x3eca4b5e	0.39510626
234	0xbe56c013	-0.20971708
235	0xbe17df8b	-0.14831369
236	0xbdaa827a	-0.08325668
237	0xbecda94e	-0.40168232
238	0xbeb8e390	-0.36111116
239	0x3ed43f93	0.41454753
240	0x3e7f2e36	0.24919972
241	0xbe5579f8	-0.20847309
242	0x3ed431b2	0.41444165
243	0x3e9c2e58	0.30504107
244	0x3e99a2f4	0.30007136
245	0xbe67d1a5	-0.22638567
246	0x3edd6b32	0.43245846
247	0xbd31ff40	-0.043456316
248	0xbedc50b8	-0.43030334
249	0x3e442924	0.19156319
250	0xbea0170d	-0.31267586
251	0x3dd11683	0.10209372
252	0xbe864c6a	-0.26230174
253	0x3e940edb	0.28917584
254	0x3eb81d50	0.35959864
255	0xbe885cf7	-0.26633427

conv1.bias f4 [32]
0	0x3ec76a6a	0.38948375
1	0xbe678468	-0.22609103
2	0x3e8a6fd9	0.27038458
3	0x3e4f347b	0.20234863
4	0x3e3ed376	0.18635353
5	0x3b25fbb0	0.002532702
6	0xbd6e76ad	-0.058218647
7	0x3e561c3c	0.20909208
8	0xbd198c00	-0.03748703
9	0x3e3708da	0.1787447
10	0xbd8e4307	-0.06946378
11	0xbe35c0d5	-0.17749341
12	0x3e6af8c0	0.22946453
13	0x3bfd7ee9	0.007736076
14	0x3db11429	0.08646423
15	0xbda0bd3c	-0.078485936
16	0x3e0440a2	0.1291528
17	0xbe2cc5df	-0.16872357
18	0x3cfb3eee	0.030669656
19	0x3dd9973e	0.1062455
20	0x3d683980	0.05669546
21	0x3e3eaa0d	0.18619557
22	0x3e3cc9f9	0.18436421
23	0xbe43047e	-0.19044682
24	0x3ed67ddc	0.41892898
25	0x3d923c31	0.07140387
26	0xbe28bf57	-0.1647924
27	0x3e87b32a	0.2650388
28	0xbe2e61bd	-0.17029472
29	0x3d21220e	0.039339118
30	0xbe2591aa	-0.16168848
31	0x3e93f88b	0.2890056

conv2.weight f4 [64, 32, 3, 3]
0	0xbde55d7a	-0.1119947
1	0xbda827c2	-0.08210708
2	0x3d8d7354	0.06906763
3	0x3d4f1d4c	0.05056505
4	0x3d65e0dc	0.056122646
5	0xbd3632b0	-0.044481933
6	0x3b540171	0.0032349492
7	0x3c0ee654	0.008721907
8	0xbc99ea20	-0.018788397
9	0xbd3fafe0	-0.046798587
10	0xbe04a478	-0.12953365
11	0xbd418e0e	-0.047254615
12	0xbd821357	-0.06351345
13	0x3cd4b8c0	0.025967002
14	0x3d3d07b0	0.04614991
15	0x3da2780f	0.079330556
16	0x3da13533	0.07871475
17	0x3dc4c134	0.09607163
18	0x3d4b9179	0.04969928
19	0xbc3a1019	-0.011356377
20	0x3bb4350f	0.005499489
21	0xbd60fb7d	-0.054927338
22	0xbd1d35b6	-0.0383813
23	0xbdab9299	-0.08377571
24	0xbcd1f8d6	-0.02563135
25	0x3b9c8070	0.004776053
26	0xbd7ac6f1	-0.06122488
27	0xbd8e7285	-0.069554366
28	0xbcd21a91	-0.025647433
29	0xbcd26a9c	-0.025685601
30	0xbc93745c	-0.01799982
31	0xb974ede7	-0.00023358279
32	0x3c0f17da	0.008733714
33	0x3d040357	0.032229748
34	0x3d25a117	0.04043683
35	0x3c4aa443	0.012368265
36	0x3d784e49	0.060621534
37	0x3d688fdd	0.056777824
38	0xbd00c0af	-0.031433757
39	0xbd831fdf	-0.06402563
40	0x3cbf30e2	0.023338739
41	0xbd354695	-0.044256765
42	0xbcb3965c	-0.021922283
43	0xbba02391	-0.0048870523
44	0xbceebec6	-0.029143702
45	0xbd8afcf5	-0.06786529
46	0x3c0cdaf5	0.008597125
47	0x3d0e1352	0.034686394
48	0xbccebbdd	-0.025236065
49	0x3ce55775	0.027995804
50	0x3e034b29	0.1282164
51	0x3d5a0157	0.053223934
52	0x3d8e87ee	0.0695952
53	0xbc6f80ef	-0.0146181425
54	0x3d3a7a64	0.045526877
55	0x3e17a54e	0.14809152
56	0x3df75b5c	0.12077972
57	0x3d41d779	0.04732463
58	0x3d3c103a	0.045913912
59	0xbd7cbdb8	-0.061704367
60	0x3d0a1db1	0.033719722
61	0x3b184833	0.0023236393
62	0x3d918144	0.071047336
63	0x3c2ac57f	0.010423063
64	0x3c52835d	0.012848702
65	0xbce20cbc	-0.027593963
66	0xbd485296	-0.048906885
67	0xbd45ecd2	-0.048321553
68	0xbd94b0d0	-0.07260287
69	0x3ce261db	0.027634552
70	0x3d865bd6	0.06560485
71	0xbd1bbea9	-0.038023625
72	0xbc81287a	-0.015766371
73	0x3d45e46f	0.048313554
74	0xbc80f041	-0.015739562
75	0xbd9004a3	-0.070321344
76	0xbcb9e880	-0.022693872
77	0xbb73c55c	-0.0037196493
78	0x3caf6862	0.021412078
79	0x3d8d5489	0.069008894
80	0x3d232d95	0.039838392
81	0x3cf120a3	0.029434508
82	0xbc906fa4	-0.01763136
83	0x3db300bc	0.087403744
84	0x3c0801f4	0.008301247
85	0x3c0f6557	0.008752189
86	0x3cddc445	0.027071128
87	0xbcf9bd8e	-0.030485895
88	0xbd60a431	-0.054844085
89	0xbccf702f	-0.025322048
90	0xbd7520d6	-0.059845768
91	0xbdf105c1	-0.117686756
92	0xbd3c6b32	-0.046000667
93	0x3ba96679	0.0051696864
94	0x3cd3e96d	0.025868142
95	0x3dc79f4e	0.09747182
96	0x3d0d4ff3	0.034500074
97	0x3d646a77	0.055765595
98	0xbd05f62d	-0.032705475
99	0x3cb3766d	0.021907056
100	0x3cce3159	0.025170015
101	0x3d6607a7	0.05615964
102	0x3ceb38a4	0.028713532
103	0x3d3c8d71	0.046033327
104	0x3d75cf17	0.06001195
105	0x3d85a3b2	0.06525363
106	0xbcd86b2f	-0.026418297
107	0x3c02fc0c	0.007994663
108	0x3d461b0b	0.048365634
109	0x3d45f7d9	0.04833207
110	0x3c933c6f	0.017973153
111	0x3cfc4374	0.030793883
112	0xbd59b3ba	-0.053149916
113	0x3b2d8f4a	0.0026483112
114	0x3c4b1a29	0.012396374
115	0xbca27d51	-0.019835146
116	0x3ca85879	0.02055
117	0x3d526d29	0.051373634
118	0x3e00bf88	0.12573063
119	0x3b8b0e83	0.0042436733
120	0x3cc262cd	0.023728753
121	0xbd214643	-0.039373647
122	0x3a503e93	0.00079438946
123	0x3d8bbd39	0.06823201
124	0x3dda06db	0.10645839
125	0x3dd6db02	0.10490991
126	0xb9b3bc13	-0.00034281667
127	0x3c9170eb	0.017754039
128	0x3c6d5e93	0.01448788
129	0x3ba62786	0.0050706295
130	0xbd802334	-0.062567145
131	0xbbbdb531	-0.005789422
132	0xbc8551f8	-0.016274437
133	0x3c59a8c1	0.013284863
134	0x3d43815d	0.047730792
135	0xbdbc85b9	-0.09205193
136	0xbd1db9af	-0.03850716
137	0x3c2391e7	0.009983516
138	0xbd5597cf	-0.05214673
139	0x3cf4f9b5	0.029904226
140	0x3d09afec	0.033615038
141	0x3d9175eb	0.07102569
142	0x3cb6b225	0.022301743
143	0x3d30f314	0.043200567
144	0x3d04cfa2	0.032424577
145	0xbc277491	-0.010220663
146	0xbc341992	-0.010992425
147	0xbc5d4888	-0.013506062
148	0xbd84419d	-0.06457827
149	0xbda5a5c5	-0.08088259
150	0xbc840adf	-0.016118465
151	0x3c94bab9	0.018155443
152	0x3bc0db3b	0.0058855093
153	0x3d8623d8	0.065498054
154	0xbd42aa17	-0.04752549
155	0x3cce3fff	0.025177
156	0xbd898a02	-0.06715776
157	0x3cd1364e	0.02553859
158	0xbd046b0a	-0.032328643
159	0x3d0c347d	0.034229744
160	0x3c8728fd	0.016499037
161	0x3d6f7903	0.058465015
162	0x3d13f0de	0.03611838
163	0x3d7dbc7f	0.061947342
164	0x3cbb632d	0.02287444
165	0x3d7ee358	0.06222853
166	0x3d4b633b	0.04965518
167	0xbca91792	-0.020641122
168	0x3b0f1726	0.0021833866
169	0xbd50e59d	-0.051000226
170	0x3c8503ca	0.016237158
171	0xbdbc4ec7	-0.09194713
172	0xbd627de3	-0.055295836
173	0xbdba221a	-0.090885356
174	0xbd089d9c	-0.033353433
175	0xbe02085d	-0.12698503
176	0x3ba793c5	0.005114051
177	0xbd16ee27	-0.036848214
178	0x3d3f4492	0.046696253
179	0x3c5ca0ec	0.013466101
180	0x3ce5222e	0.0279704
181	0xbd3c2c2a	-0.045940556
182	0x3afcac09	0.0019277345
183	0xbad6a2f8	-0.0016375473
184	0x3bcd4d74	0.0062653366
185	0xbd417a4c	-0.047235772
186	0x3c28b91d	0.010298041
187	0xbd9ef534	-0.077616125
188	0x3ce68ed3	0.028144276
189	0xbddbb76e	-0.10728346
190	0xbbc2e75e	-0.0059479913
191	0xbc81e2f8	-0.015855297
192	0x3c09b46d	0.008404833
193	0x3c87de33	0.016585445
194	0x3cfc8cc0	0.030828834
195	0xbc8c8cef	-0.017157046
196	0xbd7c060e	-0.06152921
197	0x39947f3d	0.0002832356
198	0xbcb3195a	-0.021862675
199	0xbc8e589b	-0.017376235
200	0x3db4e242	0.08832218
201	0x3dd208e8	0.10255605
202	0x3ae26662	0.0017272944
203	0x3db0ad65	0.086268224
204	0x3da96450	0.08271086
205	0x3be65802	0.0070295343
206	0x3d1f12e3	0.03883637
207	0x3d8b3a7d	0.06798265
208	0xbc917bb5	-0.017759183
209	0x3dc7436b	0.09729656
210	0x3da387bd	0.079848744
211	0xbb8515f0	-0.004061453
212	0xbcac3572	-0.021021578
213	0xbd2cb45e	-0.0421642
214	0xbd2a92b2	-0.041643806
215	0xbd965e6c	-0.07342228
216	0xbd681dac	-0.056668922
217	0xbd552d29	-0.05204502
218	0x3cbe02cc	0.023194693
219	0xbbc5215d	-0.00601594
220	0x3dbda182	0.09259321
221	0x3dd19371	0.102332
222	0x3c0b17e5	0.008489584
223	0x3daed787	0.08537202
224	0xbc43e69d	-0.011956838
225	0xbc86d1ec	-0.01645752
226	0x3df26a7a	0.11836715
227	0x3dca26af	0.098706596
228	0x3d3aa45b	0.045566898
229	0x3dbe9b8f	0.09307014
230	0xbd8820bf	-0.06646871
231	0xbc521746	-0.012822932
232	0xbbbe2d08	-0.005803708
233	0x3ccd4415	0.025056878
234	0xbd156b48	-0.036479264
235	0x3d5f8dd3	0.054578613
236	0x3debf501	0.1152134
237	0x3dc97add	0.098378874
238	0x3c687ba8	0.014189638
239	0xbd8ad658	-0.06779164
240	0x3baaca9e	0.005212142
241	0x3b0f5475	0.0021870409
242	0x3c4b1b0c	0.012396585
243	0xbde49747	-0.11161666
244	0xbe0e1e5a	-0.13878766
245	0xbd90ccf5	-0.070703425
246	0xbd86aa4c	-0.0657545
247	0x3cfa9d10	0.030592471
248	0x3dae4a19	0.08510227
249	0x3d1dee74	0.038557485
250	0x3d948d42	0.07253505
251	0x3d430d9a	0.047620393
252	0xbbfa0ee8	-0.0076311715
253	0xbd913bf0	-0.0709151
254	0xbd201086	-0.039078258
255	0xbc814725	-0.015780995

conv2.bias f4 [64]
0	0x3d3f73fd	0.046741474
1	0xbc18dc45	-0.00932986
2	0x3c20de83	0.009818676
3	0xbd3f9166	-0.046769522
4	0x3c9c5c2b	0.019086918
5	0xbcb2da7b	-0.021832695
6	0x3cdf6850	0.02727142
7	0xbc5df403	-0.013546946
8	0x3b260da9	0.0025337732
9	0x3cb61cd7	0.022230549
10	0xbc22e47d	-0.009942171
11	0xbb950527	-0.0045477333
12	0xbc391b46	-0.011298006
13	0x3d2ce73f	0.04221272
14	0xbd4ab946	-0.049493097
15	0x3c3fdb63	0.011710021
16	0x3c6573c8	0.014004655
17	0xbd30d1fe	-0.043169014
18	0xbbb0a072	-0.0053902203
19	0x3d4aa647	0.04947498
20	0x3d675642	0.056478746
21	0x3c702b06	0.014658695
22	0x3d60824d	0.054811765
23	0xbd196e3c	-0.037458643
24	0x3b63c40f	0.0034754311
25	0x3c5012a9	0.012699761
26	0x3bbb1de5	0.005710351
27	0x3b81702b	0.003950139
28	0x3bb01dae	0.005374632
29	0x3d19cc64	0.037548438
30	0x3cd7e63c	0.026354901
31	0xbc329803	-0.0109005
32	0x3bb6da90	0.005580254
33	0x3c46fea5	0.012145673
34	0xbd5f5777	-0.054526772
35	0xbd124214	-0.03570755
36	0xbd15f6b8	-0.036612242
37	0xbb8ab049	-0.0042324406
38	0xbd349ebd	-0.044096697
39	0xbd456360	-0.048190475
40	0x3d8b7843	0.068100475
41	0x3ce99669	0.028514104
42	0xbd50974b	-0.050925534
43	0xbd5b1ec4	-0.053496137
44	0xbc60323a	-0.01368385
45	0x3d318dcf	0.04334813
46	0x39c810c0	0.00038159452
47	0x3d4ccf7d	0.050002564
48	0xbce8dc7a	-0.028425444
49	0xbd083e3e	-0.033262484
50	0x3d0238ac	0.031792328
51	0x3a349013	0.0006887924
52	0x3c95da7d	0.01829266
53	0x3d54b479	0.051929925
54	0xbd9e2a2c	-0.077228874
55	0xbd44d82e	-0.048057728
56	0x3bae5507	0.0053201946
57	0xbca765c0	-0.02043426
58	0x3c740c89	0.014895567
59	0x3ca73a53	0.020413553
60	0xbbed4be0	-0.007241711
61	0xba713989	-0.0009201994
62	0xbd4689d7	-0.048471298
63	0xbd421dfa	-0.04739187

fc.weight f4 [10, 3136]
0	0xbc6f9833	-0.014623689
1	0xbb736dee	-0.003714438
2	0xbb4341f2	-0.0029793945
3	0xbcbb1977	-0.022839291
4	0xbbedfbae	-0.0072626686
5	0xbc8c0a75	-0.01709483
6	0x3c2fa988	0.010721572
7	0xbc891af2	-0.016736481
8	0xbbdfd898	-0.00683124
9	0xbc4c9ff8	-0.012489311
10	0xbd2828f7	-0.041054692
11	0xbc8df9c0	-0.017331004
12	0xbcc2e6ca	-0.02379169
13	0xbaa11854	-0.0012290576
14	0xbba72898	-0.0051012747
15	0x3c98df41	0.018661143
16	0xbcabb3f1	-0.020959826
17	0xbc0fb68e	-0.008771552
18	0xbcd6454e	-0.026156094
19	0xbcdfda46	-0.02732576
20	0xbcf12c45	-0.029440055
21	0xbc6daca8	-0.0145064965
22	0x3c843179	0.016136872
23	0x3b0a8d95	0.0021141518
24	0xbd38d2a4	-0.045122758
25	0xbd0b5bf8	-0.034023255
26	0xbbdfe337	-0.006832506
27	0xbc99e42f	-0.018785564
28	0xbc3c4009	-0.011489877
29	0xbadb94f8	-0.001675277
30	0xbb846ace	-0.0040410524
31	0xbb9ef92f	-0.0048514823
32	0x3d0308d0	0.031990826
33	0x3c742b03	0.014902833
34	0xbb382841	-0.0028100165
35	0xbc6a072b	-0.014283936
36	0xbc3143dd	-0.0108194025
37	0xbcb0ac74	-0.021566607
38	0xbbd6db51	-0.0065569063
39	0x3c9e4e63	0.019324487
40	0x3cf0f009	0.029411333
41	0x3c6f2ba7	0.01459781
42	0x3c896699	0.016772555
43	0xbbe7be0f	-0.0070722173
44	0xbd4ec1d1	-0.050477806
45	0xbd7674c3	-0.060169946
46	0xbc174f00	-0.009235144
47	0x3c854b8c	0.016271375
48	0xbb8250fd	-0.0039769397
49	0xbc79bad0	-0.0152422935
50	0xbc6a819b	-0.014313127
51	0xbce886fc	-0.028384678
52	0xbc96cf83	-0.018409496
53	0xbce55be9	-0.027997928
54	0xbb5e3fc0	-0.003391251
55	0x3bf5ad72	0.007497483
56	0xbd09bac7	-0.03362539
57	0x3b783b7d	0.0037877255
58	0xbca21bd9	-0.01978867
59	0xbc445385	-0.011982803
60	0xbba48da5	-0.005021768
61	0xbca5245a	-0.020158935
62	0xbc2e2af6	-0.01063036
63	0xbd0fe05b	-0.03512607
64	0xbbf07e4f	-0.007339276
65	0x3bb8dca5	0.0056415373
66	0x3cd3d29b	0.02585726
67	0xbd4ac26c	-0.04950182
68	0xbda0673e	-0.07832192
69	0xbc830f10	-0.015998393
70	0xbbd95574	-0.0066325013
71	0x3cae8f5f	0.021308599
72	0x3c20a145	0.009804075
73	0xbd6123e2	-0.05496586
74	0xbb8244c5	-0.003975483
75	0xbb3bdc25	-0.0028665152
76	0xbcb26577	-0.021776898
77	0xbc54125e	-0.012943832
78	0xbd07bffb	-0.03314207
79	0xbcbc4597	-0.022982402
80	0x3bceef8e	0.0063151782
81	0x3caeecc5	0.021353135
82	0x3d474be1	0.04865635
83	0xbc2d0ae6	-0.01056168
84	0xbb3a5b1c	-0.0028435653
85	0xbd4fab79	-0.05070064
86	0xbd61e8db	-0.05515371
87	0xba0bc06a	-0.0005331101
88	0x3d114645	0.035467405
89	0x3cd9910e	0.026558425
90	0x3c99c02e	0.018768396
91	0x3c576938	0.013147645
92	0xbcf30927	-0.02966745
93	0xbd91fd56	-0.07128398
94	0xbd6f65f5	-0.058446843
95	0xbb78cc31	-0.0037963504
96	0x3c34798d	0.011015308
97	0x3cd624fe	0.026140686
98	0x3b7aa8ec	0.0038247658
99	0xbcd05433	-0.025430774
100	0xbc5a4218	-0.013321422
101	0xbc65bec4	-0.014022533
102	0x3c3b4a6c	0.011431318
103	0x3c6b1c06	0.014349943
104	0x3c775fb5	0.015098502
105	0xbcec9a61	-0.028882207
106	0xba92c40c	-0.0011197343
107	0xbc2e3ad3	-0.010634142
108	0x3b0952a5	0.00209538
109	0x3cba7f26	0.022765707
110	0xbb4b0b88	-0.0030982215
111	0x3b937041	0.0044994657
112	0xbcc78c60	-0.024358928
113	0xbc8edd38	-0.01743947
114	0x3b86eb3f	0.004117399
115	0x3bacb52e	0.0052706217
116	0xbc87e264	-0.016587444
117	0xbc246c76	-0.010035625
118	0xbc6f0933	-0.014589596
119	0xbc7f41e1	-0.015579672
120	0x3cda1839	0.026622878
121	0x3c71b541	0.014752687
122	0xbce32c52	-0.027731095
123	0x3a9293ef	0.0011183004
124	0x3b729b20	0.0037018731
125	0xbbae7fa6	-0.0053252755
126	0x3cb39db8	0.021925792
127	0x3c350fb3	0.011051106
128	0x3ba29458	0.0049615316
129	0xbc955387	-0.018228306
130	0x3bd184a6	0.0063939868
131	0xbbae4d63	-0.005319284
132	0xbb4f6e49	-0.0031651428
133	0xbb080448	-0.0020754505
134	0x3b434e5f	0.0029801351
135	0x3c9cac40	0.019125104
136	0xbc8e7e8a	-0.017394323
137	0xbc4e9530	-0.012608811
138	0x3cb5bf50	0.022185951
139	0x3bebaf2c	0.007192513
140	0xbca015f3	-0.019541716
141	0xbbc884e0	-0.0061193556
142	0xbc7bccfe	-0.015368698
143	0xbd988eb4	-0.074490935
144	0xbd8eea6c	-0.06978306
145	0xbc99c971	-0.018772813
146	0x3c0c387e	0.008558391
147	0x3c4968c3	0.012293044
148	0xbbab4566	-0.005226779
149	0x3bb27ca5	0.0054469877
150	0x3c02a504	0.007973913
151	0xb8f0f488	-0.00011489639
152	0xba475e18	-0.00076052686
153	0xbc3ca857	-0.011514745
154	0x3c304291	0.010758058
155	0x3c274498	0.010209225
156	0xbca3558f	-0.019938258
157	0x3b87fae3	0.004149781
158	0x3cb6ab6c	0.022298537
159	0xba078bd0	-0.0005170675
160	0x3cb84c06	0.022497188
161	0x3c1d9947	0.009619064
162	0xbb8f96e6	-0.004382002
163	0xbcb3c07a	-0.021942366
164	0xbcc93eb3	-0.02456603
165	0x3c40d60f	0.011769786
166	0x3ceb94e4	0.02875752
167	0x3cdf78ac	0.02727922
168	0xbc020225	-0.007935082
169	0xbd182ee1	-0.037154082
170	0xbc8baea5	-0.01705105
171	0xbc433585	-0.0119146155
172	0xbd52189d	-0.051293004
173	0x3a40da9f	0.0007356796
174	0x3cb6574c	0.022258423
175	0x3c3927f9	0.011301034
176	0xbd32c9fb	-0.043649655
177	0x3c3d02d4	0.011536319
178	0x3c93001f	0.017944394
179	0xbd0572e2	-0.032580264
180	0xbc585e01	-0.013206006
181	0xbc714b57	-0.014727435
182	0x3cc22a80	0.023701906
183	0x3c1c5604	0.009541992
184	0x3c0375c1	0.00802368
185	0x3d0983f3	0.033573102
186	0xbbca2610	-0.006169088
187	0xbd207faf	-0.03918427
188	0x3c3d1774	0.011541236
189	0xbbb1ecca	-0.005429839
190	0xbc26d236	-0.010181954
191	0x3b2c94be	0.0026333774
192	0x3c804504	0.01565791
193	0xbbd430cc	-0.0064755436
194	0xbbb6e370	-0.005581312
195	0x3c9ef0bb	0.019401899
196	0xbbbebcec	-0.005820861
197	0xbc96988a	-0.018383283
198	0xba86e358	-0.0010291142
199	0xbbf4f677	-0.00747567
200	0xba91d1af	-0.0011125113
201	0xbc79b068	-0.015239812
202	0xbc064269	-0.008194544
203	0x3c685246	0.014179772
204	0xbd16d3ef	-0.03682321
205	0x3bf547ab	0.00748535
206	0xbc76a79f	-0.015054612
207	0xbcb7a871	-0.022419186
208	0xbab41524	-0.001373921
209	0x3acb9a1f	0.0015533603
210	0xba665adf	-0.00087873446
211	0xbbf18133	-0.007370138
212	0x3c41b79e	0.011823563
213	0x3d0ffc54	0.03515275
214	0x3c777e2f	0.015105768
215	0x3cdc8c7c	0.026922457
216	0x3d23e5da	0.040014125
217	0xbc71f466	-0.014767742
218	0x3607d380	2.0239677e-06
219	0x3d38acf7	0.045086827
220	0x3cc9ebc1	0.024648549
221	0x3c8ef4ed	0.017450774
222	0x3ca8db9c	0.02061253
223	0x3d30410d	0.043030787
224	0xbc86946c	-0.016428195
225	0x3ce38553	0.027773535
226	0x3b9ef074	0.0048504416
227	0x3ba81f4d	0.0051306845
228	0x3c712e21	0.014720471
229	0x3c34759a	0.0110143665
230	0x3cf81f32	0.030288313
231	0x3cc0a8cc	0.023517989
232	0x3b3a0a4f	0.0028387492
233	0xbb680e48	-0.0035408903
234	0xbbddd914	-0.0067702625
235	0xbd07ab93	-0.03312261
236	0xbc92ed12	-0.01793531
237	0x3bf4fa3d	0.00747612
238	0xbc830a12	-0.015996013
239	0xb9ceb8b6	-0.00039429002
240	0x3ca7aec9	0.020469086
241	0x3bd472c1	0.0064834063
242	0xbd92796b	-0.07152065
243	0xbceb773c	-0.028743379
244	0xb90346a8	-0.00012519455
245	0xbc6d68f3	-0.014490354
246	0xbbe475a3	-0.006972031
247	0xbc2854a3	-0.010274085
248	0xbca4bf63	-0.020110792
249	0xbd15bb2e	-0.03655546
250	0xbcfc7ce9	-0.03082128
251	0xbc47548f	-0.012166156
252	0xbc40adda	-0.011760199
253	0x3c302ffd	0.010753629
254	0xbc2b4178	-0.010452621
255	0x3b9698b4	0.0045958403

fc.bias f4 [10]
0	0x3b11689f	0.0022187603
1	0x3bb6b8d3	0.005576232
2	0xbc27be7c	-0.010238286
3	0x3c5899fd	0.013220307
4	0xbaa635ec	-0.0012680865
5	0x3beb69f9	0.007184264
6	0x3a936e3f	0.0011248066
7	0xbc0fcfb4	-0.008777548
8	0xbc8c9953	-0.017162954
9	0x3c80ed70	0.015738219
